srcnn.pth (torch, 231869 bytes, 5 tensors)

net.0.weight f4 [64, 1, 9, 9]
00000000: fbf4 dfbd c7b7 e1bd ceaf 9fbd 8431 f03c
00000010: ba48 393d e6d9 5a3d 0476 13bd 9ad5 0a3d
00000020: 62ae 583d 54ca f4bc 3836 21bc 3220 dfbd
00000030: abdb 8c3d 7af8 1e3d b2df 22bd 40a9 8abb
00000040: a6d1 5b3d e3a0 b83d e7e4 be3d 80df 803a
00000050: e6ba 023d 6303 dc3d 7016 acbd 1256 92bd
00000060: ae5e 7dbd 00d7 a7b9 d8a0 2a3c f0fe d9bc
00000070: 142e d5bd 0003 92bb b485 9bbd 605b 7c3b
00000080: 56fa b7bd 40e0 c13b 38e1 203c 57a9 d3bd
00000090: b82c 02bc 4aed 353d df99 893d 19e8 cabd
000000a0: a9f7 babd 742b b4bd 3114 d83d d080 a0bc
000000b0: 0dcd cd3d c9a8 943d 38bc 2ebd ed22 d53d
000000c0: 3730 aa3d 1c70 25bd b922 bf3d 0060 f9bc
000000d0: 27fa 77bd 6ad6 a2bd b977 913d 0e4b 7bbd
000000e0: ea12 37bd 4aa4 96bd e0ec 063b a7a9 71bd
000000f0: b810 f3bc bc4d 9dbd 9a4c 3f3d c0fa d6ba
00000100: 6c67 8bbd b2a0 5abd 5910 4ebd 8137 a73d
00000110: 56d1 38bd 5256 713d 2902 dcbd 3891 233c
00000120: 47a0 b53d 3c3b cf3c 35a9 5dbd 7ee6 9ebd
00000130: 90f6 c83b aa11 753d c72e 88bd 272b ba3d
00000140: a250 5f3d 53c4 923d 8388 ea3a 8022 bd3c
00000150: 7203 d9bd f2be 9d3d e2ac 263d 5867 7abc
00000160: c5b0 903d e64d 6fbd 8729 ca3d 8805 8d3d
00000170: bcc1 94bd 6afa a2bd d854 e1bd a9d7 753c
00000180: 6e45 ba3d 8232 9c3b ed13 803d efaa d23d
00000190: 26ba cebd b3ce 8fbd a529 44bd 8288 093d
000001a0: e25f 41bd 5c1a 183d 57fd 9cb9 a64c ca3c
000001b0: e073 c23d af25 9f3d 4c13 633d aec4 0538
000001c0: 9b91 b63d 96f6 3bbc ea4d fd3c 2b2c b7bd
000001d0: cb28 96bd b9e1 edbd 10f7 bcbd 46c5 27bd
000001e0: cdc9 183b 1cb1 bd3c 7ddb 713d ca02 843d
000001f0: 3a67 5a3d c300 e4bd 65d6 98bd aac8 86bd
00000200: b487 69bc 3a6e b63d 7e3d 673c cee1 bb3d
00000210: cffe 663c 96df 93bc 213b b2bd ce28 d13c
00000220: 4540 61bd b500 103c c570 a03d 5f3f c93b
00000230: b46b 6cbc dd38 c8bd ef8b d9bd 0eb1 cd3d
00000240: ba13 193d c63c 1d3d f848 d93c a60d c0bd
00000250: ea2b 17bd 4bdd 95bd d645 79bd 9f85 d1bb
00000260: 19d0 a7bc f98a 85bd 3682 9d3c 98dc fa3c
00000270: e42a 8abd c35d 1e3d 479e cc3c a8f6 653d
00000280: c9d6 103c 4c3c adbc 6aaa 7f3d af28 b6bc
00000290: 0c54 e93c 0495 b3bd 3b43 d53c 2160 a2bd
000002a0: 631d 563d 9883 d7bd ee59 90bd 14d7 a0bd
000002b0: f6c3 0dbc f693 d03d 8672 a8bd 5143 9b3d
000002c0: 4aa9 0e3d 4f7f 56bd 4ab6 cc3d 1111 e0ba
000002d0: d14a 0e3d e565 a3bd 8b6a 9ebd e2cb b4bd
000002e0: 2b35 5fbd 04a6 cfbd 587e d03d ecaa 84bc
000002f0: 134a 903d 8b0f a7bd f7fa 4dbd cf67 3d3c
00000300: b5c2 51bd b262 873d f927 0dbd b3c8 49bd
00000310: b140 a43d 55e7 0c3d 20d9 abbb c078 d3bd
00000320: a848 75bd 205a e53d 1f88 5d3d c11f bc3d
00000330: 907c cf3c e28e 3fbd d399 da3d fd09 ee3c
00000340: c297 c93d 8e19 c23d 1c11 c6bc 4928 af3d
00000350: b4c7 dd3d d2eb a93d d045 afbd 6c5c 99bd
00000360: 0e4e a73d 54d2 413d 1aea b53d 8595 2bbc
00000370: 8dbf 7c3d cd9e 42bc 9fdc 9cbd afda 233d
00000380: 8ec9 bb3c bc77 4cbd 738a 8bbd e9c5 cabc
00000390: 25aa 023d 3e56 ae3d c229 b63d 927b 6dbd
000003a0: 170e 8c3c 2d94 19bd 438f 7c3d ce2b 823d
000003b0: 3948 c03d e3fa b8bd de82 393c 4471 91bc
000003c0: 5a1b 04bd cdf1 97bd bb9e eb3c b03c b03b
000003d0: cc47 b53c 901c 853b f66d 573d cbdc e0bd
000003e0: 3882 7dbc 00cd baba 3838 d9bc 3834 a2bc
000003f0: 101e d2bd 66a4 b2bd 55fc 4abd e04a b83b
-0.10935398 -0.11021381 -0.07797204 0.029320486 0.045235373 0.05343046 -0.03600122 0.033895113
0.05290068 -0.029881634 -0.009839587 -0.10894813 0.06877836 0.038811184 -0.039764114 -0.004231602
0.053666733 0.09015062 0.093210034 0.0009832233 0.03191652 0.107428335 -0.08402717 -0.07145323
-0.06185787 -0.0003201291 0.010414325 -0.026610821 -0.10409179 -0.004455924 -0.07593861 0.0038506612
-0.08983295 0.0059166253 0.009819321 -0.103350334 -0.007945232 0.04441575 0.06718802 -0.0990755
-0.09129269 -0.087973505 0.10550726 -0.019592673 0.10048876 0.07258756 -0.04265997 0.10407052
0.083099775 -0.04039012 0.09332795 -0.030441284 -0.0605413 -0.079510525 0.071029134 -0.061350875
-0.044695772 -0.073555544 0.0020587966 -0.058999684 -0.029671058 -0.07680842 0.046703912 -0.0016401634
-0.068068355 -0.053375907 -0.05030856 0.081648834 -0.045121513 0.058920212 -0.107425995 0.009983353
0.08868461 0.0252968 -0.054116447 -0.07758807 0.006132908 0.0598313 -0.06649547 0.09090262
0.054520257 0.07166352 0.0017893467 0.02308774 -0.1059636 0.077024356 0.040692218 -0.015283428
0.07064966 -0.0584239 0.09871202 0.068858206 -0.072635144 -0.07957919 -0.11002511 0.015005031
0.09095274 0.004766763 0.062538005 0.10286509 -0.10094099 -0.070218466 -0.047891278 0.03357745
-0.04721058 0.037134513 -0.00029943392 0.024694752 0.09494758 0.077708595 0.055438325 3.1892843e-05
0.08914491 -0.011472365 0.030920941 -0.08943971 -0.073319994 -0.11615319 -0.09226811 -0.04095962
0.0023313642 0.023155741 0.05904721 0.064458445 0.0533211 -0.11132958 -0.074627675 -0.065812424
-0.014253546 0.08907743 0.014113782 0.09173928 0.014098837 -0.01805095 -0.08702684 0.025532153
-0.054992933 0.008789231 0.07834009 0.0061415876 -0.014429975 -0.09776471 -0.10622393 0.10043536
0.03737233 0.038388036 0.026524052 -0.09377603 -0.036907114 -0.07317599 -0.060857616 -0.0063941027
-0.02048497 -0.065206476 0.019227128 0.030622765 -0.06746462 0.038663637 0.024977816 0.056143433
0.008840271 -0.021146916 0.06241838 -0.022236196 0.02848246 -0.08768657 0.026033035 -0.079284914
0.05227412 -0.105231464 -0.07048403 -0.07853523 -0.008652678 0.10184471 -0.082249686 0.07581199
0.034829415 -0.052367505 0.099957064 -0.001709493 0.03473932 -0.07978419 -0.07735165 -0.0882795
-0.054494064 -0.10139087 0.10180348 -0.016194783 0.070453785 -0.081572615 -0.050288167 0.011560394
-0.051211078 0.066106215 -0.03446195 -0.049263667 0.080201514 0.034400303 -0.005244389 -0.103257656
-0.059883744 0.111988306 0.054084893 0.09185744 0.02532795 -0.046767123 0.10673871 0.029057497
0.09843399 0.094775304 -0.02417808 0.08552606 0.10829106 0.08296932 -0.085582376 -0.07488331
0.081691846 0.047319725 0.08882542 -0.01047266 0.061706115 -0.011878681 -0.07659268 0.040003475
0.022923257 -0.049918875 -0.068135165 -0.024752574 0.031900544 0.08512543 0.088946834 -0.057979174
0.017096562 -0.037494827 0.061660063 0.06356011 0.093887754 -0.09032228 0.011322705 -0.017754205
-0.032252647 -0.07419167 0.028762212 0.0053783283 0.022128962 0.004062243 0.0525951 -0.10979613
-0.015472941 -0.0014251769 -0.026516065 -0.01980029 -0.1025964 -0.08722763 -0.04955705 0.00562416

net.0.bias f4 [64]
00000000: 3288 2cbd 35fa 1fbd c515 5dbd 40ac 46bd
00000010: 705d 013d 847f adbd 51b4 cdbd 9e5b 6bbd
00000020: 9d48 543d cbee 113d f9d1 b53c 9344 ba3d
00000030: 7014 0e3d d858 aabd 4a72 d8bc 7e2e 56bd
00000040: 3b85 453c 472a 8c3d acb0 d8bd a3d5 663d
00000050: b421 3d3c 86f1 b13d 55b5 8f3b 6bb7 95bd
00000060: be04 bcbd c57a a9bd 3f97 30bd aecf b43d
00000070: fa99 d4bd b9f8 e93c 2e72 5f3d 78db 70bb
00000080: 52e2 bb3d aab7 973d 1480 53bc b990 06bc
00000090: 8aff 15bd 4a76 b03d a496 953c 0265 72bd
000000a0: 12ac 34bd cfa5 01bd 21b8 943d 485c 943d
000000b0: b871 74bd cc1e bc3d edd5 863d 1ab0 30bd
000000c0: 6f75 d1bd e9b5 a5bd 7548 a0bd a23b 883d
000000d0: 2719 65bc 0f53 cebc be06 5f3c 7a7c 9abb
000000e0: 742e 9039 01bb b3bd 9cbb fe3b 8aef f63a
000000f0: de4d 663d 723c a13b 89fd 77bd e3ef 723d
-0.042122073 -0.039056975 -0.05397584 -0.048504114 0.03158325 -0.08471587 -0.10044158 -0.05746042
0.051827062 0.03562812 0.02219485 0.09095111 0.03468746 -0.08317727 -0.026421685 -0.052290432
0.01205569 0.06844001 -0.105805725 0.056356084 0.01154368 0.08688645 0.00438563 -0.07310375
-0.09180592 -0.082753696 -0.04311299 0.08828674 -0.10380931 0.028560983 0.05455225 -0.0036751907
0.091740265 0.07408078 -0.012908954 -0.0082132155 -0.036620654 0.08616312 0.018260308 -0.05917836
-0.04410941 -0.031652268 0.07261682 0.07244164 -0.059678763 0.091855615 0.06583772 -0.043136694
-0.10227477 -0.08091337 -0.0782632 0.06651999 -0.013983048 -0.02518609 0.013612447 -0.004714546
0.0002750043 -0.087759025 0.0077738296 0.0018839699 0.056226604 0.0049205357 -0.060544524 0.059310805

net.2.weight f4 [32, 64, 5, 5]
00000000: a4c7 16bc 3289 3b3c e648 333c c349 79bc
00000010: 64fe 03bc 07d9 53bc 57f1 75bc f36e ad3c
00000020: 15c4 b83c c92f a73c 7d0b 3cbc 00e6 dd39
00000030: ae72 0d3c 521d 713c 802e 5bbc 2348 a73c
00000040: 14ba 10bc e310 ae3c 9051 5dbc 80d2 e8bb
00000050: 2cec bfbb f03b 1bbb 446d 88bc 00cc dfbb
00000060: 47bc 8c3c 199e 1d3c 463f 8a3c af38 fabb
00000070: 93a0 9dbc 4a64 1cba dea1 acbc ec0d 553c
00000080: 5eee aebc 7e6d bbbc f643 a8ba 2912 753b
00000090: 3aac a23c 2a39 843c 73e1 4e3b 8118 83bb
000000a0: d504 c5ba 6765 9fbb c2c3 32bc 0e08 a1bc
000000b0: 403d 81bc bfb8 70bc b025 01bc da1c a3bb
000000c0: 19c8 683c 132b 9abc 3664 2c3b c4cb 623c
000000d0: 7a67 5b3b 47bf 9c3c 15dd 343c 7336 c9bb
000000e0: 3c21 a6bc b228 5a3b 5a69 803c f098 a53b
000000f0: 8ae9 7cbc 42d6 1f3b fafe 6c3c 4a8e 223c
00000100: 39c6 2d3c 4f2c ce3b a0ce 953c 94fc 73bc
00000110: 1583 4dbc 527d 10bc 4581 af3c afbb 8cbc
00000120: 8769 56bb 116b 90bc ced3 43bb b25f 6b3c
00000130: c3da ae3b 7899 e03b f3f6 77bc 2020 e8ba
00000140: b98b a1bb 8e9d 0e3c 5eca 23bc 3261 96bc
00000150: 7458 87bc 2bab ed3b 74ad 70bc 02d5 183b
00000160: caf4 763c 8037 acba b8b4 78bc 8cf1 c53c
00000170: a362 f1bb 406d 88bb 1955 9c3c ac26 92bb
00000180: f5cd a8bc 1aaa 8ebc 34aa d4bb a21e babc
00000190: caf2 213c d34e b53c db03 543c 3d1b a2bc
000001a0: 7252 af3b d34d 1dbc a8a1 89bc 56ce fb3b
000001b0: 5ef7 c33c 4106 bb3c 3a68 10bc bfb1 bcbc
000001c0: 9f92 a9bc 7c3f debb 2232 833c 518b fdba
000001d0: 9b89 9d3c 183c 8bb9 ae1d 743c 3ad4 4dbc
000001e0: f0f6 f9bb 7975 ffbb 4011 00ba 4826 8cbb
000001f0: ea92 9b3b edd9 67b9 acd5 97bc bc92 a33c
00000200: af3e 043c 098c 993b cff2 743c 2381 7ebc
00000210: 34a6 9fbc e6c1 b43c 2e3e 1d3c 9cf2 103c
00000220: 56d4 9bba eeef a03c 7cd6 b83c dd34 b93c
00000230: 0e45 78bb 8387 7e3c 20df 553c 2f19 b03c
00000240: 3199 59bb a169 e6ba 8769 df3b dbf9 28bc
00000250: 08dc adbc a13f c4bc ab32 64bd 09c5 2bbd
00000260: 1cc7 a03b 8ac9 b33c 85d2 283b 1626 04bd
00000270: e2ff 0ebd de3e 533c 7739 b73c 3d0f 223d
00000280: 81b0 1cbd 0c42 16bd 1be7 133b 84d2 113c
00000290: 9f5f 753c a883 20bd a124 43bc 6db7 983c
000002a0: e9ae 2c3c ee1c 333c 832a 4cbd e289 aebc
000002b0: df1f adbb 3c3b 7d3c ff0f 2b3d 74c7 a23d
000002c0: 5c70 a93d 7651 2d3d 282d a23d 4d13 373d
000002d0: 8fa5 d9ba fef6 c9bc 7daa 8bbc 331c 6ebb
000002e0: 3db6 e53b 6928 a13c 764e 0f3d c912 3b3c
000002f0: 8c0d 3a3d 44bc 25bb 4071 c7bc 4ad9 1abc
00000300: d62c 40bd 9aa3 c0bc c4bf 17bc c9be ac3c
00000310: 9964 013c 3d7e ed3c 9c98 bd3c 3ad8 cfbb
00000320: 84e2 a9bb 5457 383c c009 26bb 5776 613b
00000330: 7518 b63c 5342 0c3b f263 083c 0f5d 743c
00000340: 1932 96bc bc8d 56bc 0d1f c2bc d641 353c
00000350: 7005 aa3c 683d 71bb da4c bb3c 13ae 3e39
00000360: d59d e3bb 827b a4bc 8fd6 b1bc 36d1 cb3b
00000370: 06ae 493c 45e8 783b 3ab5 80bc 8c6f 053c
00000380: e143 8cbc b50e e4bc 30d7 973c 4804 a4bb
00000390: 77aa 873b 8a5a 333c d479 82bc 7b82 dabc
000003a0: 891a 2b3c 4070 07bc 45c2 afbc 46ed 66bc
000003b0: f150 b8bc 1d59 1d3b 3ba4 29ba 1971 713c
000003c0: fa03 2dbc 8fd1 973c 30b0 9cbc 0fee f33b
000003d0: e5ca b23c a1b6 903c cb48 fabb b06e 793c
000003e0: 5c10 523c f1aa bd3b 23d2 7d3b 6165 6e3c
000003f0: 5f03 a03b ab6e b1bb 7510 23bc daa1 d1bc
-0.0092028715 0.011446284 0.010942673 -0.01521534 -0.008056257 -0.012930161 -0.015011153 0.021171069
0.022554437 0.020408528 -0.011477348 0.00042323768 0.008633299 0.014716463 -0.013377786 0.02042014
-0.008833427 0.021248287 -0.013508216 -0.0071051717 -0.0058570113 -0.0023686849 -0.016653664 -0.0068297386
0.017179621 0.009620213 0.016875874 -0.0076361517 -0.019241607 -0.0005965872 -0.021073278 0.0130038075
-0.021353897 -0.022879358 -0.0012837637 0.0037394857 0.019857515 0.01614054 0.0031567484 -0.004000724
-0.0015031347 -0.004864383 -0.01091093 -0.019657161 -0.015776277 -0.014692484 -0.007882521 -0.0049778046
0.014207863 -0.018819368 0.0026304848 0.013842527 0.0033478425 0.019134177 0.011039038 -0.006140524
-0.02027952 0.0033288416 0.015675236 0.005053632 -0.015436539 0.0024389182 0.014465088 0.00992162
0.010606342 0.006291903 0.018287003 -0.014891762 -0.012543459 -0.008818941 0.021423945 -0.017179338
-0.0032716708 -0.017629178 -0.0029880884 0.014366077 0.005336137 0.0068542324 -0.015134561 -0.0017709769
-0.0049299863 0.008704556 -0.009996979 -0.018356893 -0.01652167 0.007253071 -0.014689792 0.0023320322
0.015073011 -0.0013139099 -0.015179805 0.02416303 -0.0073664947 -0.0041634142 0.019083546 -0.0044601765
-0.02060602 -0.017415095 -0.0064900164 -0.022719685 0.009884546 0.022132313 0.012940372 -0.019788379
0.0053504044 -0.009601074 -0.016800717 0.0076845093 0.023921665 0.02283013 -0.008813912 -0.023033975
-0.020699797 -0.0067824703 0.016015116 -0.0019343888 0.019230654 -0.0002655692 0.014899654 -0.012562806
-0.007628314 -0.0077959863 -0.0004885383 -0.0042770244 0.004747738 -0.0002211106 -0.018534504 0.01996743
0.008071586 0.004685883 0.014950468 -0.015533718 -0.019488432 0.022065114 0.009597344 0.008846905
-0.0011888843 0.019645657 0.022563212 0.022608215 -0.0037882957 0.015535238 0.013053685 0.021496383
-0.0033202881 -0.0017579087 0.0068179998 -0.010313476 -0.021223083 -0.023956122 -0.055712383 -0.041935954
0.004906548 0.021946687 0.0025760245 -0.032262884 -0.034911998 0.012893407 0.022366269 0.039565314
-0.038254265 -0.03668408 0.002256817 0.0089002885 0.014976411 -0.039188057 -0.0119105885 0.018642152
0.010539749 0.01093219 -0.04984523 -0.021305982 -0.0052833403 0.015456017 0.041763302 0.07948199
0.08273384 0.042314015 0.07918769 0.04469614 -0.0016605126 -0.024653908 -0.017049069 -0.0036332726
0.00701025 0.01967259 0.034986936 0.011418053 0.045423076 -0.0025289217 -0.024345994 -0.00945122
-0.04691776 -0.023515511 -0.009262029 0.021087067 0.0078975195 0.02899086 0.023144059 -0.006342915
-0.0051844735 0.011251289 -0.0025335401 0.0034402811 0.022228459 0.0021401837 0.00832461 0.014914765
-0.018334435 -0.013095316 -0.023696447 0.01106306 0.020754546 -0.0036810283 0.022863794 0.0001818466
-0.0069463053 -0.020078424 -0.021708755 0.0062200082 0.012309557 0.003798024 -0.015711416 0.008144271
-0.017122211 -0.027839044 0.018535227 -0.005005393 0.004140194 0.010946879 -0.015927233 -0.026673546
0.010443338 -0.008266509 -0.02145494 -0.014094656 -0.022499533 0.0024009414 -0.00064713106 0.014736437
-0.01056003 0.018532543 -0.019126981 0.0074441503 0.021825263 0.01766521 -0.007638072 0.015224144
0.012821283 0.0057882 0.0038729988 0.014550538 0.0048832144 -0.005414804 -0.009952654 -0.025589872

net.2.bias f4 [32]
00000000: cac9 91bc 040f 843c 02e2 ebbc 9e08 4abc
00000010: bfa5 dfbc 2ea2 0bbb 824a adbb dd63 42bc
00000020: de77 40bc 794c b73c afba 81bb c763 8dbc
00000030: 91ff a5bc 0e0e a5bc dc15 29bc 2c3c e6bc
00000040: 0c7d e8bc a8f8 f6bc f6ac bfbc 034e a43c
00000050: 7f13 edbc b069 a1bb 6bb4 aebb 5aa3 89bc
00000060: 47a4 3abc 93e9 b3bb bd4e eb3b e03b 7c3c
00000070: 8a29 debc 0838 bcbc 4e37 bcbb f68a 78bc
-0.017796416 0.016120441 -0.028794292 -0.012331156 -0.027300714 -0.0021306383 -0.005288423 -0.01186463
-0.011747329 0.022375332 -0.003959022 -0.017259492 -0.020263465 -0.020148303 -0.010320153 -0.028104864
-0.02837994 -0.030147865 -0.023397904 0.02005673 -0.02893996 -0.004925929 -0.005331566 -0.016801525
-0.011391706 -0.0054904907 0.007181017 0.015395135 -0.027119417 -0.022975937 -0.0057438975 -0.01516985

net.4.weight f4 [1, 32, 5, 5]
00000000: 6475 a2bc 2a7a 043d 5b84 423c f0b0 963c
00000010: 124f 9e3c a645 893a 9ba5 14bd 7b87 99bc
00000020: bcfe 60ba c85b 0bbd 41ce 4d3c 9aa0 063d
00000030: f560 1e3b 33f0 edbb aa0c 38bb a6b4 013d
00000040: f877 b6bc 0a78 953c b486 17bd 4053 90bc
00000050: 515b 8b3c 449d 67bc 0ff9 8cba 56ee ff3b
00000060: 3ce6 e7bc 0161 3ebc 62de 98bc 7609 243c
00000070: d236 c4bc 88a0 663c e004 5fb9 d9a3 cc3c
00000080: 26d4 0a3c d492 043c d728 06bd d3d1 813c
00000090: 4ada aa3c e096 09bd 8d49 cb3c 72d0 793c
000000a0: 9c82 7cbc ddd5 e8ba 3609 473b 99a7 1abd
000000b0: d49b eabc 6e4d f33c 86af 92bc 6df0 46bc
000000c0: 44cb 723c 582e b3bc 62fb 2bbb feb8 e6bc
000000d0: a201 59bc be35 e63c a0cf e53b 193e 833c
000000e0: ac5e 1a3c c354 c03c e031 0b3c e2e0 fa3c
000000f0: a55a b43b c831 d13c c9d7 48bb 0804 dc3b
00000100: f2b0 0cbc 00b3 5b3c eadc ea3c 6afe 3dbc
00000110: c228 64bc 52f8 c33c 30fd 073b 7019 d8bc
00000120: 11f9 02bd 7e87 b23c 20a8 693b 449a 11bd
00000130: 51c6 f53c 834f e23c d2a7 84bc bc8a c53c
00000140: 364e 0f3c b20e 69bc 4298 2dbb cfab 91bc
00000150: a314 c7bc 1ee7 0cbd 5073 2ebc 7a27 7cbc
00000160: 0834 c13c 6744 ad3b b423 aeb8 b016 8cbc
00000170: 316a bc3c 09bd 3dbb ae39 b8b9 8ced 1b3c
00000180: 28c0 d43b 4568 d5bc fc37 5cbc f751 bf3c
00000190: a18e 233d 6961 913c 69b6 dd3c 0b69 b83b
000001a0: 3e52 903c d35c cebc 59e8 75bc 08dd f73b
000001b0: 586d 953a bae2 343c 2eb8 213c 2138 48bc
000001c0: be82 21bc 660e 90bc 990b 133d 6600 823b
000001d0: 48e3 24bc 2a2f 1bbc 1aa3 b8bb 6b41 cbbb
000001e0: 5203 1d3d ca74 99bb afed 163d 9af2 b63c
000001f0: 1487 d5bc 9696 c0bc 949e 353c 2267 de3c
00000200: 2b3e 17bd 3362 e0bc d19d fcbc 8e8f f13b
00000210: 345c b63c 1f4a bf3c 469c 05bc d648 113c
00000220: 54fd 493c 8994 a4bc 2ce8 af3c eeaa 0d3b
00000230: 523c bdbc 436c 3c39 2e35 03bd 5416 4abc
00000240: 1c7a e33c d2a1 88bc 246f 9d3c 67a1 013d
00000250: 5cfa 04bd 7976 503c f00d 793a fcfd acbc
00000260: 82b8 a13c 719c 6e3b d30a 353c aac4 f23c
00000270: 8267 4d3c 3de2 2d3c 5ac1 bbbb ca30 a63b
00000280: 0c51 1b3d addd a1bc 7b46 6dbc 9f44 4bbb
00000290: 87b8 f43a 3e0e b8bc 8bef 813c 67b6 d7bc
000002a0: 5f60 dbbc b0af c0bc fc79 2c3d 5f3e babc
000002b0: 77b8 bb3c 563b 2abc 6a92 283d 8097 9aba
000002c0: 878e edbc 4162 ecbc 2c5c 79bc d0d9 dbbb
000002d0: 3805 a13c 6ec6 3dbc c040 143a a6a4 eb3c
000002e0: cebf 823c 69e8 1a3c b738 b8bb ff85 823b
000002f0: 0462 a0bc 49be 953c da5a 4fbc 148e 1abc
00000300: 27c9 7cbc f36a 05bd 8d0e 4d3c 7889 d23b
00000310: 56b8 96bc 2578 9239 52a1 32bc af20 2bbc
00000320: 5f33 0b3d cc2a 253c 91bb 4dbc 6b53 8ebb
00000330: b7bb c6bc 24a5 bd3c e05f c5ba 1f3b c53a
00000340: 001e 99bb a11d 863c eea0 8abc 16c1 da3c
00000350: 8301 44bb 9ca6 b93b 0df3 013c 6f95 b2bc
00000360: bc75 9d3c 7074 ae3b d45e e8bc e967 88bc
00000370: c5a6 053d 6c3e a3bc 79de aebc b529 513c
00000380: 7a58 af3c 8330 edbc d0f4 bdbc c37c 493c
00000390: 5fb6 44bb 9272 e13c 22c8 4fbb 6c63 493c
000003a0: 96bd 913c 7d7e d8bc 0a08 8a3c e3ad 073d
000003b0: ea0a 11bd dfdb 9ebc a48e 2eba e3dd a53c
000003c0: c86c 073d dbf5 95bc f60b ab3c 372b c73c
000003d0: d028 033d 7763 ab3c 7a7a 02bd 22d4 ee3c
000003e0: 3ee8 ab3c aa49 713c 5722 a8bb 1971 91bc
000003f0: 60fa 3cbc 3608 d639 4b4a b63c 6871 6bbc
-0.019831367 0.032343067 0.011872376 0.018394917 0.019324813 0.0010473027 -0.036290746 -0.01874136
-0.000858288 -0.034023076 0.012561382 0.032868005 0.0024166678 -0.0072613 -0.002808372 0.03166642
-0.022274002 0.018245716 -0.036993697 -0.017617822 0.017011316 -0.014136616 -0.0010755378 0.0078103943
-0.028308026 -0.011619807 -0.018660728 0.010012021 -0.023951922 0.01407636 -0.00021268753 0.024980472
0.008473432 0.008091647 -0.03275379 0.015847122 0.020856041 -0.03359115 0.024815345 0.015247451
-0.015411999 -0.0017763932 0.003037048 -0.03775749 -0.028638758 0.029700007 -0.017905962 -0.012142283
0.01481897 -0.021872684 -0.0026242365 -0.028164383 -0.013245018 0.028101798 0.007013276 0.016020821
0.009421986 0.023477918 0.008495778 0.03062481 0.0055039697 0.025536433 -0.0030646196 0.0067143477
-0.008587109 0.013409376 0.028669793 -0.011596302 -0.013925733 0.02392212 0.0020750277 -0.026379317
-0.03197581 0.021793123 0.0035653189 -0.03554751 0.030001791 0.027625805 -0.016193304 0.024114005
0.008746674 -0.014224695 -0.0026488458 -0.01778212 -0.024301833 -0.034400098 -0.01064761 -0.015390271
0.02358438 0.005287695 -8.303617e-05 -0.017100662 0.022999855 -0.0028951785 -0.0003513819 0.009517085
0.0064926334 -0.026050696 -0.013441082 0.023354514 0.039930943 0.017746644 0.027064519 0.0056277565
0.017617341 -0.025190746 -0.015009009 0.007564191 0.0011400385 0.011040384 0.009870572 -0.012220413
-0.0098578315 -0.01758499 0.035899732 0.0039673327 -0.010063954 -0.009471694 -0.0056346776 -0.006202867
0.038333245 -0.004683112 0.036847766 0.022332478 -0.026065387 -0.023509305 0.011085171 0.027148787
-0.036924522 -0.027390575 -0.030836971 0.0073718494 0.022260763 0.023350773 -0.008154934 0.008867463
0.012328465 -0.020090358 0.021473013 0.0021616775 -0.023100052 0.00017969408 -0.032033138 -0.012334425
0.027768187 -0.016678724 0.019218035 0.031648066 -0.032465324 0.012723559 0.0009500673 -0.021117203
0.0197413 0.0036409164 0.011049944 0.029634792 0.012536885 0.010613021 -0.0057298364 0.005071734
0.03791909 -0.019759024 -0.014482136 -0.0031016243 0.0018670716 -0.022467729 0.015861293 -0.026332093
-0.026779352 -0.023521274 0.04210852 -0.022734819 0.022915108 -0.010390123 0.041155256 -0.0011794418
-0.028998626 -0.028855445 -0.015219729 -0.006709315 0.019655809 -0.011582954 0.00056554005 0.028765034
0.0159606 0.009454825 -0.0056219953 0.0039832587 -0.019577987 0.018279212 -0.012655938 -0.009433288
-0.015428818 -0.032572698 0.012515676 0.006425079 -0.018398445 0.00027936805 -0.01090272 -0.010444804
0.03398454 0.010081004 -0.012556926 -0.0043434403 -0.024259431 0.023150034 -0.001505848 0.0015047527
-0.0046727657 0.01637155 -0.01692244 0.026703399 -0.0029908128 0.0056656133 0.007931483 -0.021799771
0.01922118 0.005323939 -0.02836553 -0.01665111 0.032629747 -0.019927226 -0.021346318 0.012766291
0.021404494 -0.028953796 -0.023188025 0.012297812 -0.0030015928 0.027520452 -0.0031704982 0.01229177
0.017790597 -0.026427502 0.016849536 0.033124816 -0.0354108 -0.019391952 -0.00066588284 0.020247405
0.033062726 -0.01830571 0.020879727 0.024312599 0.032021344 0.020921452 -0.031855084 0.029153887
0.020984765 0.014727036 -0.0051310468 -0.017754124 -0.011534303 0.00040823378 0.022252223 -0.0143703
